…
ool2d(2, 2),     k4t.layers.Conv2d(64, kernel_size=3), nn.ReLU(),    nn.Flatten(),    k4t.layers.Linear(10))```A model containing `KerasLayer` needs an extra `.build(input_shape)` operation.```pythonmodel = k4t.Model(model).build([1, 28, 28])```#### Step3: Summary the model```pythonmodel.summary()``````txt=========================================================================================Layer (type:depth-idx)                   Output Shape              Param #=========================================================================================├─Conv2d*: 1-1                           [-1, 32, 26, 26]          320├─ReLU: 1-2                              [-1, 32, 26, 26]          --├─MaxPool2d: 1-3                         [-1, 32, 13, 13]          --├─Conv2d*: 1-4                           [-1, 64, 11, 11]          18,496├─ReLU: 1-5                              [-1, 64, 11, 11]          --├─Flatten: 1-6                           [-1, 7744]                --├─Linear*: 1-7                           [-1, 10]                  77,450=========================================================================================Total params: 96,266Trainable params: 96,266Non-trainable params: 0Total mult-adds (M): 2.50=========================================================================================```#### Step4: Config optimizer, loss and metrics```pythonmodel.compile(optimizer='adam', loss=nn.CrossEntropyLoss(), metrics=['ac
…
