…
f.fc2(x)        return F.log_softmax(x, dim=1)# show input shapeprint(summary(Net(), torch.zeros((1, 1, 28, 28)), show_input=True))# show output shapeprint(summary(Net(), torch.zeros((1, 1, 28, 28)), show_input=False))# show output shape and hierarchical view of netprint(summary(Net(), torch.zeros((1, 1, 28, 28)), show_input=False, show_hierarchical=True))``````-----------------------------------------------------------------------      Layer (type)         Input Shape         Param #     Tr. Param #=======================================================================          Conv2d-1      [1, 1, 28, 28]             260             260          Conv2d-2     [1, 10, 12, 12]           5,020           5,020       Dropout2d-3       [1, 20, 8, 8]               0               0          Linear-4            [1, 320]          16,050          16,050          Linear-5             [1, 50]             510             510=======================================================================Total params: 21,840Trainable params: 21,840Non-trainable params: 0-----------------------------------------------------------------------``````-----------------------------------------------------------------------      Layer (type)        Output Shape         Param #     Tr. Param #=======================================================================          Conv2d-1     [1, 10, 24, 24]             260             260          Conv2d-2       [1, 20, 8, 8]           5,020           5,020       Dropout2d-3       [1, 20, 8, 8]               0               0          Linear-4             [1, 50]          16,050          16,050          Linear-5             [1, 10]             510             510=======================================================================Total params: 21,840Trainable params: 21,840Non-trainable params: 0-----------------------------------------------------------------------``````-----------------------------------------------------------------------      Layer (type)        Output Shape         Param #     Tr. Param #=======================================================================          Conv2d-1     [1, 10, 24, 24]             260             260          Conv2d-2       [1, 20, 8, 8]           5,020           5,020       Dropout2d-3       [1, 20, 8, 8]               0               0          Linear-4             [1, 50]          16,050          16,050          Linear-5             [1, 10]             510             510=======================================================================Total params: 21,840Trainable params: 21,840Non-trainable params: 0-----------------------------------------------------------------------=========================== Hierarchical Summary ===========================Net(  (conv1): Conv2d(1, 10, kernel_size=(5, 5), stride=(1, 1)), 260 params  (conv2): Conv2d(10, 20
…
rams), 39,396,352 params======================================================================================```3) showing **layers until depth 2**```python# show layers until depth 2pms.summary(model, enc_inputs, dec_inputs, max_depth=2, print_summary=True)``````-----------------------------------------------------------------------------------------------      Layer (type)                                Output Shape         Param #     Tr. Param #===============================================================================================       Embedding-1                                 [1, 5, 512]           3,072           3,072       Embedding-2                                 [1, 5, 512]           3,072               0    EncoderLayer-3                   [1, 5, 512], [1, 8, 5, 5]       2,887,680       2,887,680    EncoderLayer-4                   [1, 5, 512], [1, 8, 5, 5]       2,887,680       2,887,680    EncoderLayer-5                   [1, 5, 512], [1, 8, 5, 5]       2,887,680       2,887,680    EncoderLayer-6                   [1, 5, 512], [1, 8, 5, 5]       2,887,680       2,887,680    EncoderLayer-7                   [1, 5, 512], [1, 8, 5, 5]       2,887,680       2,887,680    EncoderLayer-8                   [1, 5, 512], [1, 8, 5, 5]       2,887,680       2,887,680       Embedding-9                                 [1, 5, 512]           3,584           3,584      Embedding-10                                 [1, 5, 512]           3,072               0   DecoderLayer-11     [1, 5, 512], [1, 8, 5, 5], [1, 8, 5, 5]       3,675,648       3,675,648   DecoderLayer-12     [1, 5, 512], [1, 8, 5, 5], [1, 8, 5, 5]       3,675,648       3,675,648   DecoderLayer-13     [1, 5, 512], [1, 8, 5, 5], [1, 8, 5, 5]       3,675,648       3,675,648   DecoderLayer-14     [1, 5, 512], [1, 8, 5, 5], [1, 8, 5, 5]       3,675,648       3,675,648   DecoderLayer-15     [1, 5, 512], [1, 8, 5, 5], [1, 8, 5, 5]       3,675,648       3,675,648   DecoderLayer-16     [1, 5, 512], [1, 8, 5, 5], [1, 8, 5, 5]       3,675,648       3,675,648         Linear-17                                   [1, 5, 7]           3,584           3,584===============================================================================================Total params: 39,396,352Trainable params: 39,390,208Non-trainable params: 6,144-----------------------------------------------------------------------------------------------```4) showing **deepest layers**```python# show deepest layerspms.summary(model, enc_inputs, dec_inputs, max_depth=None, print_summary=True)``````-----------------------------------------------------------------------      Layer (type)        Output Shape         Param #     Tr. Param #=======================================================================       Embedding-1         [1, 5, 512]           3,072           3,072       Embedding-2         [1, 5, 512]           3,072               0          Linear-3         [1, 5, 512]         262,656         262,656          Linear-4         [1, 5, 512]         262,656         262,656          Linear-5         [1, 5, 512]         262,656         262,656          Conv1d-6        [1, 2048, 5]       1,050,624       1,050,624          Conv1d-7         [1, 512, 5]       1,049,088       1,049,088          Linear-8         [1, 5, 512]         262,656         262,656          Linear-9         [1, 5, 512]         262,656         262,656         Linear-10         [1, 5, 512]         262,656         262,656         Conv1d-11        [1, 2048, 5]       1,050,624       1,050,624         Conv1d-12         [1, 512, 5]       1,049,088       1,049,088         Linear-13         [1, 5, 512]         262,656         262,656         Linear-14         [1, 5, 512]         262,656         262,656         Linear-15         [1, 5, 512]         262,656         262,656         Conv1d-16        [1, 2048, 5]       1,050,624       1,050,624         Conv1d-17         [1, 512, 5]       1,049,088       1,049,088         Linear-18         [1, 5, 512]         262,656         262,656         Linear-19         [1, 5, 512]         262,656         262,656         Linear-20         [1, 5, 512]         262,656         262,656         Conv1d-21        [1, 2048, 5]       1,050,624       1,050,624         Conv1d-22         [1, 512, 5]       1,049,088       1,049,088         Linear-23         [1, 5, 512]         262,656         262,656         Linear-24         [1, 5, 512]         262,656         262,656         Linear-25         [1, 5, 512]         262,656         262,656         Conv1d-26        [1, 2048, 5]       1,050,624       1,050,624         Conv1d-27         [1, 512, 5]       1,049,088       1,049,088         Linear-28         [1, 5, 512]         262,656         262,656         Linear-29         [1, 5, 512]         262,656         262,656         Linear-30         [1, 5, 512]         262,656         262,656         Conv1d-31        [1, 2048, 5]       1,050,624       1,050,624         Conv1d-32         [1, 512, 5]       1,049,088       1,049,088      Embedding-33         [1, 5, 512]           3,584           3,584      Embedding-34         [1, 5, 512]           3,072               0         Linear-35         [1, 5, 512]         262,656         262,656         Linear-36         [1, 5, 512]         262,656         262,656         Linear-37         [1, 5, 512]         262,656         262,656         Linear-38         [1, 5, 512]         262,656         262,656         Linear-39         [1, 5, 512]         262,656         262,656         Linear-40         [1, 5, 512]         262,656         262,656         Conv1d-41        [1, 2048, 5]       1,050,624       1,050,624         Conv1d-42         [1, 512, 5]       1,049,088       1,049,088         Linear-43         [1, 5, 512]         262,656         262,656         Linear-44         [1, 5, 512]         262,656         262,656         Linear-45         [1, 5, 512]         262,656         262,656         Linear-46         [1, 5, 512]         262,656         262,656         Linear-47         [1, 5, 512]         262,656         262,656         Linear-48         [1, 5, 512]         262,656         262,656         Conv1d-49        [1, 2048, 5]       1,050,624       1,050,624         Conv1d-50         [1, 512, 5]       1,049,088       1,049,088         Linear-51         [1, 5, 512]         262,656         262,656         Linear-52         [1, 5, 512]         262,656         262,656         Linear-53         [1, 5, 512]         262,656         262,656         Linear-54         [1, 5, 512]         262,656         262,656         Linear-55         [1, 5, 512]         262,656         262,656         Linear-56         [1, 5, 512]         262,656         262,656         Conv1d-57        [1, 2048, 5]       1,050,624       1,050,624         Conv1d-58         [1, 512, 5]       1,049,088       1,049,088         Linear-59         [1, 5, 512]         262,656         262,656         Linear-60         [1, 5, 512]         262,656         262,656         Linear-61         [1, 5, 512]         262,656         262,656         Linear-62         [1, 5, 512]         262,656         262,656         Linear-63         [1, 5, 512]         262,656         262,656         Linear-64         [1, 5, 512]         262,656         262,656         Conv1d-65        [1, 2048, 5]       1,050,624       1,050,624         Conv1d-66         [1, 512, 5]       1,049,088       1,049,088         Linear-67         [1, 5, 512]         262,656         262,656         Linear-68         [1, 5, 512]         262,656         262,656         Linear-69         [1, 5, 512]         262,656         262,656         Linear-70         [1, 5, 512]         262,656         262,656         Linear-71         [1, 5, 512]         262,656         262,656         Linear-72         [1, 5, 512]         262,656         262,656         Conv1d-73        [1, 2048, 5]       1,050,624       1,050,624         Conv1d-74         [1, 512, 5]       1,049,088       1,049,088         Linear-75         [1, 5, 512]         262,656         262,656         Linear-76         [1, 5, 512]         262,656         262,656         Linear-77         [1, 5, 512]         262,656         262,656         Linear-78         [1, 5, 512]         262,656         262,656         Linear-79         [1, 5, 512]         262,656         262,656         Linear-80         [1, 5, 512]         262,656         262,656         Conv1d-81        [1, 2048, 5]       1,050,624       1,050,624         Conv1d-82         [1, 512, 5]       1,049,088       1,049,088         Linear-83           [1, 5, 7]           3,584           3,584=======================================================================Total params: 39,396,352Trainable params: 39,390,208Non-trainable params: 6,144-----------------------------------------------------------------------```5) showing **layers until depth 3** and adding column with **parent layers**```python# show layers until depth 3 and add column with parent layerspms.summary(model, enc_inputs, dec_inputs, max_depth=3, show_parent_layers=True, print_summary=True)``````-----------------------------------------------------------------------------------------------------------------------------                      Parent Layers                Layer (type)                  Output Shape         Param #     Tr. Param #=============================================================================================================================                Transformer/Encoder                 Embedding-1                   [1, 5, 512]           3,072           3,072                Transformer/Encoder                 Embedding-2                   [1, 5, 512]           3,072               0   Transformer/Encoder/EncoderLayer        MultiHeadAttention-3     [1, 5, 512], [1, 8, 5, 5]         787,968         787,968   Transformer/Encoder/EncoderLayer     PoswiseFeedForwardNet-4                   [1, 5, 512]       2,099,712       2,099,712   Transformer/Encoder/EncoderLayer        MultiHeadAttention-5     [1, 5, 512], [1, 8, 5, 5]         787,968         787,968   Transformer/Encoder/EncoderLayer     PoswiseFeedForwardNet-6                   [1, 5, 512]       2,099,712       2,099,712   Transformer/Encoder/EncoderLayer        MultiHeadAttention-7     [1, 5, 512], [1, 8, 5, 5]         787,968         787,968   Transformer/Encoder/EncoderLayer     PoswiseFeedForwardNet-8                   [1, 5, 512]       2,099,712       2,099,712   Transformer/Encoder/EncoderLayer        MultiHeadAttention-9     [1, 5, 512], [1, 8, 5, 5]         787,968         787,968   Transformer/Encoder/EncoderLayer    PoswiseFeedForwardNet-10                   [1, 5, 512]       2,099,712       2,099,712   Transformer/Encoder/EncoderLayer       MultiHeadAttention-11     [1, 5, 512], [1, 8, 5, 5]         787,968         787,968   Transformer/Encoder/EncoderLayer    PoswiseFeedForwardNet-12                   [1, 5, 512]       2,099,712       2,099,712   Transformer/Encoder/EncoderLayer       MultiHeadAttention-13     [1, 5, 512], [1, 8, 5, 5]         787,968         787,968   Transformer/Encoder/EncoderLayer    PoswiseFeedForwardNet-14                   [1, 5, 512]       2,099,712       2,099,712                Transformer/Decoder                Embedding-15                   [1, 5, 512]           3,584           3,584                Transformer/Decoder                Embedding-16                   [1, 5, 512]           3,072               0   Transformer/Decoder/DecoderLayer       MultiHeadAttention-17     [1, 5, 512], [1, 8, 5, 5]         787,968         787,968   Transformer/Decoder/DecoderLayer       MultiHeadAttention-18     [1, 5, 512], [1, 8, 5, 5]         787,968         787,968   Transformer/Decoder/DecoderLayer    PoswiseFeedForwardNet-19                   [1, 5, 512]       2,099,712       2,099,712   Transformer/Decoder/DecoderLayer       MultiHeadAttention-20     [1, 5, 512], [1, 8, 5, 5]         787,968         787,968   Transformer/Decoder/DecoderLayer       MultiHeadAttention-21     [1, 5, 512], [1, 8, 5, 5]         787,968         787,968   Transformer/Decoder/DecoderLayer    PoswiseFeedForwardNet-22                   [1, 5, 512]       2,099,712       2,099,712   Transformer/Decoder/DecoderLayer       MultiHeadAttention-23     [1, 5, 512], [1, 8, 5, 5]         787,968         787,968   Transformer/Decoder/DecoderLayer       MultiHeadAttention-24     [1, 5, 512], [1, 8, 5, 5]         787,968         787,968   Transformer/Decoder/DecoderLayer    PoswiseFeedForwardNet-25                   [1, 5, 512]       2,099,712       2,099,712   Transformer/Decoder/DecoderLayer       MultiHeadAttention-26     [1, 5, 512], [1, 8, 5, 5]         787,968         787,968   Transformer/Decoder/DecoderLayer       MultiHeadAttention-27     [1, 5, 512], [1, 8, 5, 5]         787,968         787,968   Transformer/Decoder/DecoderLayer    PoswiseFeedForwardNet-28                   [1, 5, 512]       2,099,712       2,099,712   Transformer/Decoder/DecoderLayer       MultiHeadAttention-29     [1, 5, 512], [1, 8, 5, 5]         787,968         787,968   Transformer/Decoder/DecoderLayer       MultiHeadAttention-30     [1, 5, 512], [1, 8, 5, 5]         787,968         787,968   Transformer/Decoder/DecoderLayer    PoswiseFeedForwardNet-31                   [1, 5, 512]       2,099,712       2,099,712   Transformer/Decoder/DecoderLayer       MultiHeadAttention-32     [1, 5, 512], [1, 8, 5, 5]         787,968         787,968   Transformer/Decoder/DecoderLayer       MultiHeadAttention-33     [1, 5, 512], [1, 8, 5, 5]         787,968         787,968   Transformer/Decoder/DecoderLayer    PoswiseFeedForwardNet-34                   [1, 5, 512]       2,099,712       2,099,712                        Transformer                   Linear-35                     [1, 5, 7]           3,584           3,584=============================================================================================================================Total params: 39,396,352Trainable params: 39,390,208Non-trainable params: 6,144-----------------------------------------------------------------------------------------------------------------------------```## Reference```pythoncode_reference = { 'https://github.com/graykode/modelsummary', 'https://github.com/pytorch/pytorch/issues/2001','https://gist.github.com/HTLife/b6640af9d6e7d765411f8aa9aa94b837','https://github.com/sksq96/pytorch-summary','Inspired by https://github.com/sksq96/pytorch-summary'}```</longdescription>
…
