…
 yet inferred values__):```pythonSequential(  (0): Conv(in_channels=?, out_channels=64, kernel_size=3, stride=1, padding=same, dilation=1, groups=1, bias=True, padding_mode=zeros)  (1): ReLU()  (2): BatchNorm(num_features=?, eps=1e-05, momentum=0.1, affine=True, track_running_stats=True)  (3): Conv(in_channels=?, out_channels=128, kernel_size=3, stride=1, padding=same, dilation=1, groups=1, bias=True, padding_mode=zeros)  (4): ReLU()  (5): Conv(in_channels=?, out_channels=256, kernel_size=11, stride=1, padding=same, dilation=1, groups=1, bias=True, padding_mode=zeros)  (6): GlobalMaxPool()  (7): Linear(in_features=?, out_features=10, bias=True))```* Now you can __build__/instantiate your model with example input (in this case MNIST-like):```pythonmnist_model = tl.build(model, torch.randn(1, 3, 28, 28))```* Or if it's text classification you are after, same model could be built with different`input shape` (e.g. for text classification using `300` dimensional pretrained embedding):```python# [batch, embedding, timesteps], first dimension &gt; 1 for BatchNorm1d to worktext_model = tl.build(model, torch.randn(2, 300, 1))```* Finally, you can `print` both models after instantiation, provided below sideby-side for readability (__notice different dimenstionality, e.g. `Conv2d` vs `Conv1d` after `torchlayers.build`__):```python                # TEXT CLASSIFIER                 MNIST CLASSIFIER                Sequential(                       Sequential(                  (0): Conv1d(300, 64)              (0): Conv2d(3, 64)                  (1): ReLU()                       (1): ReLU()                  (2): BatchNorm1d(64)              (2): BatchNorm2d(64)                  (3): Conv1d(64, 128)              (3): Conv2d(64, 128)                  (4): ReLU()                       (4): ReLU()                  (5): Conv1d(128, 256)             (5): Conv2d(128, 256)                  (6): GlobalMaxPool()              (6): GlobalMaxPool()                  (7): Linear(256, 10)              (7): Linear(256, 10)                )                                 )```As you can see both modules &quot;compiled&quot; into original `pytorch` layers.## Custom modules with shape inference capabilitiesUser can define any module and make it shape inferable with `torchlayers.infer`function:```python # Class defined with in_features # It might be a good practice to use _ prefix and Impl as postfix # to diffe
…
